…
00:16<00:00, 103.65it/s]Padding data:  99%|█████████▉| 2029/2042 [00:16<00:00, 109.85it/s]Padding data: 100%|██████████| 2042/2042 [00:16<00:00, 113.80it/s]Padding data: 100%|██████████| 2042/2042 [00:16<00:00, 122.77it/s]
Model: "model"
_________________________________________________________________
Layer (type)                 Output Shape              Param #   
=================================================================
input_1 (InputLayer)         [(None, 300, 125)]        0         
_________________________________________________________________
bl_1 (BL)                    (None, 120, 5)            37225     
_________________________________________________________________
activation_1 (Activation)    (None, 120, 5)            0         
_________________________________________________________________
dropout_1 (Dropout)          (None, 120, 5)            0         
_________________________________________________________________
bl_2 (BL)                    (None, 60, 2)             7330      
_________________________________________________________________
activation_2 (Activation)    (None, 60, 2)             0         
_________________________________________________________________
dropout_2 (Dropout)          (None, 60, 2)             0         
_________________________________________________________________
tabl (TABL)                  (None, 2)                 129       
_________________________________________________________________
activation_3 (Activation)    (None, 2)                 0         
=================================================================
Total params: 44,684
Trainable params: 44,684
Non-trainable params: 0
_________________________________________________________________
Epoch 1/100
4382/4382 - 314s - loss: 0.7680
Epoch 2/100
4382/4382 - 314s - loss: 0.6277
Epoch 3/100
4382/4382 - 313s - loss: 0.6263
Epoch 4/100
4382/4382 - 312s - loss: 0.6248
Epoch 5/100
4382/4382 - 309s - loss: 0.6146
…
