…
00:04<00:00, 465.19it/s]Padding data:  95%|█████████▌| 1948/2042 [00:04<00:00, 468.62it/s]Padding data:  98%|█████████▊| 1997/2042 [00:04<00:00, 472.95it/s]Padding data: 100%|██████████| 2042/2042 [00:04<00:00, 459.68it/s]
Model: "model"
_________________________________________________________________
Layer (type)                 Output Shape              Param #   
=================================================================
input_1 (InputLayer)         [(None, 300, 7)]          0         
_________________________________________________________________
bl_1 (BL)                    (None, 120, 5)            36635     
_________________________________________________________________
activation_1 (Activation)    (None, 120, 5)            0         
_________________________________________________________________
dropout_1 (Dropout)          (None, 120, 5)            0         
_________________________________________________________________
bl_2 (BL)                    (None, 60, 2)             7330      
_________________________________________________________________
activation_2 (Activation)    (None, 60, 2)             0         
_________________________________________________________________
dropout_2 (Dropout)          (None, 60, 2)             0         
_________________________________________________________________
tabl (TABL)                  (None, 2)                 129       
_________________________________________________________________
activation_3 (Activation)    (None, 2)                 0         
=================================================================
Total params: 44,094
Trainable params: 44,094
Non-trainable params: 0
_________________________________________________________________
Epoch 1/100
4407/4407 - 32s - loss: 0.5853
Epoch 2/100
4407/4407 - 34s - loss: 0.5550
Epoch 3/100
4407/4407 - 34s - loss: 0.5377
Epoch 4/100
4407/4407 - 31s - loss: 0.5276
Epoch 5/100
4407/4407 - 34s - loss: 0.5209
…
