…
Padding data:   0%|          | 0/368 [00:00<?, ?it/s]Padding data:  29%|██▉       | 106/368 [00:00<00:00, 1059.08it/s]Padding data:  58%|█████▊    | 215/368 [00:00<00:00, 1074.84it/s]Padding data:  88%|████████▊ | 323/368 [00:00<00:00, 1044.42it/s]Padding data: 100%|██████████| 368/368 [00:00<00:00, 1052.66it/s]
Model: "model"
_________________________________________________________________
Layer (type)                 Output Shape              Param #   
=================================================================
input_1 (InputLayer)         [(None, 100, 7)]          0         
_________________________________________________________________
bl_1 (BL)                    (None, 120, 5)            12635     
_________________________________________________________________
activation_1 (Activation)    (None, 120, 5)            0         
_________________________________________________________________
dropout_1 (Dropout)          (None, 120, 5)            0         
_________________________________________________________________
bl_2 (BL)                    (None, 60, 2)             7330      
_________________________________________________________________
activation_2 (Activation)    (None, 60, 2)             0         
_________________________________________________________________
dropout_2 (Dropout)          (None, 60, 2)             0         
_________________________________________________________________
tabl (TABL)                  (None, 2)                 129       
_________________________________________________________________
activation_3 (Activation)    (None, 2)                 0         
=================================================================
Total params: 20,094
Trainable params: 20,094
Non-trainable params: 0
_________________________________________________________________
Epoch 1/2
426/426 - 2s - loss: 0.6884
Epoch 2/2
426/426 - 1s - loss: 0.6778
INFO: [tensorflow] Assets written to: model/assets
Train f1_avg: 0.3831856604542214
Test f1_avg: 0.38519904509968383
