…
00:03<00:00, 546.58it/s]Padding data:  96%|█████████▋| 1966/2042 [00:03<00:00, 546.59it/s]Padding data:  99%|█████████▉| 2021/2042 [00:03<00:00, 545.59it/s]Padding data: 100%|██████████| 2042/2042 [00:03<00:00, 540.52it/s]
Model: "model"
_________________________________________________________________
Layer (type)                 Output Shape              Param #   
=================================================================
input_1 (InputLayer)         [(None, 100, 100)]        0         
_________________________________________________________________
bl_1 (BL)                    (None, 120, 5)            13100     
_________________________________________________________________
activation_1 (Activation)    (None, 120, 5)            0         
_________________________________________________________________
dropout_1 (Dropout)          (None, 120, 5)            0         
_________________________________________________________________
bl_2 (BL)                    (None, 60, 2)             7330      
_________________________________________________________________
activation_2 (Activation)    (None, 60, 2)             0         
_________________________________________________________________
dropout_2 (Dropout)          (None, 60, 2)             0         
_________________________________________________________________
tabl (TABL)                  (None, 2)                 129       
_________________________________________________________________
activation_3 (Activation)    (None, 2)                 0         
=================================================================
Total params: 20,559
Trainable params: 20,559
Non-trainable params: 0
_________________________________________________________________
Epoch 1/100
4383/4383 - 37s - loss: 0.6377
Epoch 2/100
4383/4383 - 36s - loss: 0.5917
Epoch 3/100
4383/4383 - 36s - loss: 0.5775
Epoch 4/100
4383/4383 - 36s - loss: 0.5665
Epoch 5/100
4383/4383 - 36s - loss: 0.5553
…
