…
00:17<00:00, 110.37it/s]Padding data:  99%|█████████▉| 2029/2042 [00:17<00:00, 112.80it/s]Padding data: 100%|█████████▉| 2041/2042 [00:17<00:00, 112.94it/s]Padding data: 100%|██████████| 2042/2042 [00:17<00:00, 116.44it/s]
Model: "model"
_________________________________________________________________
Layer (type)                 Output Shape              Param #   
=================================================================
input_1 (InputLayer)         [(None, 300, 125)]        0         
_________________________________________________________________
bl_1 (BL)                    (None, 120, 5)            37225     
_________________________________________________________________
activation_1 (Activation)    (None, 120, 5)            0         
_________________________________________________________________
dropout_1 (Dropout)          (None, 120, 5)            0         
_________________________________________________________________
bl_2 (BL)                    (None, 60, 2)             7330      
_________________________________________________________________
activation_2 (Activation)    (None, 60, 2)             0         
_________________________________________________________________
dropout_2 (Dropout)          (None, 60, 2)             0         
_________________________________________________________________
tabl (TABL)                  (None, 2)                 129       
_________________________________________________________________
activation_3 (Activation)    (None, 2)                 0         
=================================================================
Total params: 44,684
Trainable params: 44,684
Non-trainable params: 0
_________________________________________________________________
Epoch 1/100
4382/4382 - 318s - loss: 1.1874
Epoch 2/100
4382/4382 - 312s - loss: 0.6204
Epoch 3/100
4382/4382 - 311s - loss: 0.8344
Epoch 4/100
4382/4382 - 310s - loss: 0.6145
Epoch 5/100
4382/4382 - 313s - loss: 0.6150
…
