…
00:03<00:00, 519.69it/s]Padding data:  97%|█████████▋| 1979/2042 [00:03<00:00, 521.26it/s]Padding data: 100%|█████████▉| 2032/2042 [00:03<00:00, 519.38it/s]Padding data: 100%|██████████| 2042/2042 [00:03<00:00, 511.79it/s]
Model: "model"
_________________________________________________________________
Layer (type)                 Output Shape              Param #   
=================================================================
input_1 (InputLayer)         [(None, 100, 7)]          0         
_________________________________________________________________
bl_1 (BL)                    (None, 120, 5)            12635     
_________________________________________________________________
activation_1 (Activation)    (None, 120, 5)            0         
_________________________________________________________________
dropout_1 (Dropout)          (None, 120, 5)            0         
_________________________________________________________________
bl_2 (BL)                    (None, 60, 2)             7330      
_________________________________________________________________
activation_2 (Activation)    (None, 60, 2)             0         
_________________________________________________________________
dropout_2 (Dropout)          (None, 60, 2)             0         
_________________________________________________________________
tabl (TABL)                  (None, 2)                 129       
_________________________________________________________________
activation_3 (Activation)    (None, 2)                 0         
=================================================================
Total params: 20,094
Trainable params: 20,094
Non-trainable params: 0
_________________________________________________________________
Epoch 1/100
4408/4408 - 28s - loss: 0.6215
Epoch 2/100
4408/4408 - 31s - loss: 0.5945
Epoch 3/100
4408/4408 - 31s - loss: 0.5877
Epoch 4/100
4408/4408 - 31s - loss: 0.5801
Epoch 5/100
4408/4408 - 31s - loss: 0.5744
…
