…
0%|##########| 2042/2042 [00:05<00:00, 377.83it/s]
Model: "model"
__________________________________________________________________________________________________
Layer (type)                    Output Shape         Param #     Connected to                     
==================================================================================================
input_1 (InputLayer)            [(None, 200, 60)]    0                                            
__________________________________________________________________________________________________
conv1d (Conv1D)                 (None, 200, 64)      30784       input_1[0][0]                    
__________________________________________________________________________________________________
batch_normalization (BatchNorma (None, 200, 64)      256         conv1d[0][0]                     
__________________________________________________________________________________________________
activation (Activation)         (None, 200, 64)      0           batch_normalization[0][0]        
__________________________________________________________________________________________________
conv1d_1 (Conv1D)               (None, 200, 64)      20544       activation[0][0]                 
__________________________________________________________________________________________________
batch_normalization_1 (BatchNor (None, 200, 64)      256         conv1d_1[0][0]                   
__________________________________________________________________________________________________
activation_1 (Activation)       (None, 200, 64)      0           batch_normalization_1[0][0]      
__________________________________________________________________________________________________
conv1d_3 (Conv1D)               (None, 200, 64)      3904        input_1[0][0]                    
__________________________________________________________________________________________________
conv1d_2 (Conv1D)               (None, 200, 64)      12352       activation_1[0][0]               
__________________________________________________________________________________________________
batch_normalization_3 (BatchNor (None, 200, 64)      256         conv1d_3[0][0]                   
__________________________________________________________________________________________________
batch_normalization_2 (BatchNor (None, 200, 64)      256         conv1d_2[0][0]                   
__________________________________________________________________________________________________
add (Add)                       (None, 200, 64)      0           batch_normalization_3[0][0]      
                                                                 batch_normalization_2[0][0]      
__________________________________________________________________________________________________
activation_2 (Activation)       (None, 200, 64)      0           add[0][0]                        
__________________________________________________________________________________________________
conv1d_4 (Conv1D)               (None, 200, 128)     65664       activation_2[0][0]               
__________________________________________________________________________________________________
batch_normalization_4 (BatchNor (None, 200, 128)     512         conv1d_4[0][0]                   
__________________________________________________________________________________________________
activation_3 (Activation)       (None, 200, 128)     0           batch_normalization_4[0][0]      
__________________________________________________________________________________________________
conv1d_5 (Conv1D)               (None, 200, 128)     82048       activation_3[0][0]               
__________________________________________________________________________________________________
batch_normalization_5 (BatchNor (None, 200, 128)     512         conv1d_5[0][0]                   
__________________________________________________________________________________________________
activation_4 (Activation)       (None, 200, 128)     0           batch_normalization_5[0][0]      
__________________________________________________________________________________________________
conv1d_7 (Conv1D)               (None, 200, 128)     8320        activation_2[0][0]               
__________________________________________________________________________________________________
conv1d_6 (Conv1D)               (None, 200, 128)     49280       activation_4[0][0]               
__________________________________________________________________________________________________
batch_normalization_7 (BatchNor (None, 200, 128)     512         conv1d_7[0][0]                   
__________________________________________________________________________________________________
batch_normalization_6 (BatchNor (None, 200, 128)     512         conv1d_6[0][0]                   
__________________________________________________________________________________________________
add_1 (Add)                     (None, 200, 128)     0           batch_normalization_7[0][0]      
                                                                 batch_normalization_6[0][0]      
__________________________________________________________________________________________________
activation_5 (Activation)       (None, 200, 128)     0           add_1[0][0]                      
__________________________________________________________________________________________________
conv1d_8 (Conv1D)               (None, 200, 128)     131200      activation_5[0][0]               
__________________________________________________________________________________________________
batch_normalization_8 (BatchNor (None, 200, 128)     512         conv1d_8[0][0]                   
__________________________________________________________________________________________________
activation_6 (Activation)       (None, 200, 128)     0           batch_normalization_8[0][0]      
__________________________________________________________________________________________________
conv1d_9 (Conv1D)               (None, 200, 128)     82048       activation_6[0][0]               
__________________________________________________________________________________________________
batch_normalization_9 (BatchNor (None, 200, 128)     512         conv1d_9[0][0]                   
__________________________________________________________________________________________________
activation_7 (Activation)       (None, 200, 128)     0           batch_normalization_9[0][0]      
__________________________________________________________________________________________________
conv1d_10 (Conv1D)              (None, 200, 128)     49280       activation_7[0][0]               
__________________________________________________________________________________________________
batch_normalization_11 (BatchNo (None, 200, 128)     512         activation_5[0][0]               
__________________________________________________________________________________________________
batch_normalization_10 (BatchNo (None, 200, 128)     512         conv1d_10[0][0]                  
__________________________________________________________________________________________________
add_2 (Add)                     (None, 200, 128)     0           batch_normalization_11[0][0]     
                                                                 batch_normalization_10[0][0]     
__________________________________________________________________________________________________
activation_8 (Activation)       (None, 200, 128)     0           add_2[0][0]                      
__________________________________________________________________________________________________
global_average_pooling1d (Globa (None, 128)          0           activation_8[0][0]               
__________________________________________________________________________________________________
dense (Dense)                   (None, 4)            516         global_average_pooling1d[0][0]   
==================================================================================================
Total params: 541,060
Trainable params: 538,500
Non-trainable params: 2,560
__________________________________________________________________________________________________
Epoch 1/100
4388/4388 - 496s - loss: 0.9595
Epoch 2/100
4388/4388 - 549s - loss: 0.9061
…
