…
00:03<00:00, 529.06it/s]Padding data:  96%|█████████▌| 1965/2042 [00:03<00:00, 527.89it/s]Padding data:  99%|█████████▉| 2019/2042 [00:03<00:00, 529.70it/s]Padding data: 100%|██████████| 2042/2042 [00:03<00:00, 535.97it/s]
Model: "model"
_________________________________________________________________
Layer (type)                 Output Shape              Param #   
=================================================================
input_1 (InputLayer)         [(None, 100, 100)]        0         
_________________________________________________________________
bl_1 (BL)                    (None, 120, 5)            13100     
_________________________________________________________________
activation_1 (Activation)    (None, 120, 5)            0         
_________________________________________________________________
dropout_1 (Dropout)          (None, 120, 5)            0         
_________________________________________________________________
bl_2 (BL)                    (None, 60, 2)             7330      
_________________________________________________________________
activation_2 (Activation)    (None, 60, 2)             0         
_________________________________________________________________
dropout_2 (Dropout)          (None, 60, 2)             0         
_________________________________________________________________
tabl (TABL)                  (None, 2)                 129       
_________________________________________________________________
activation_3 (Activation)    (None, 2)                 0         
=================================================================
Total params: 20,559
Trainable params: 20,559
Non-trainable params: 0
_________________________________________________________________
Epoch 1/100
Traceback (most recent call last):
  File "/home/blez/Projects/anomaly_simulation/Zoo/Results/runs/00eeebd528b4451cb766a47bfff0e264/.guild/sourcecode/TABL/train.py", line 104, in <module>
…
00:03<00:00, 561.75it/s]Padding data:  95%|█████████▍| 1938/2042 [00:03<00:00, 562.90it/s]Padding data:  98%|█████████▊| 1996/2042 [00:03<00:00, 565.08it/s]Padding data: 100%|██████████| 2042/2042 [00:03<00:00, 561.33it/s]
Model: "model"
_________________________________________________________________
Layer (type)                 Output Shape              Param #   
=================================================================
input_1 (InputLayer)         [(None, 100, 80)]         0         
_________________________________________________________________
bl_1 (BL)                    (None, 120, 5)            13000     
_________________________________________________________________
activation_1 (Activation)    (None, 120, 5)            0         
_________________________________________________________________
dropout_1 (Dropout)          (None, 120, 5)            0         
_________________________________________________________________
bl_2 (BL)                    (None, 60, 2)             7330      
_________________________________________________________________
activation_2 (Activation)    (None, 60, 2)             0         
_________________________________________________________________
dropout_2 (Dropout)          (None, 60, 2)             0         
_________________________________________________________________
tabl (TABL)                  (None, 2)                 129       
_________________________________________________________________
activation_3 (Activation)    (None, 2)                 0         
=================================================================
Total params: 20,459
Trainable params: 20,459
Non-trainable params: 0
_________________________________________________________________
Epoch 1/100
Traceback (most recent call last):
  File "/home/blez/Projects/anomaly_simulation/Zoo/Results/runs/5b52a34da80544f5acfef96c7a7ffb08/.guild/sourcecode/TABL/train.py", line 104, in <module>
…
00:02<00:00, 661.57it/s]Padding data:  96%|█████████▌| 1952/2042 [00:02<00:00, 666.96it/s]Padding data:  99%|█████████▉| 2019/2042 [00:03<00:00, 659.08it/s]Padding data: 100%|██████████| 2042/2042 [00:03<00:00, 664.04it/s]
Model: "model"
_________________________________________________________________
Layer (type)                 Output Shape              Param #   
=================================================================
input_1 (InputLayer)         [(None, 100, 40)]         0         
_________________________________________________________________
bl_1 (BL)                    (None, 120, 5)            12800     
_________________________________________________________________
activation_1 (Activation)    (None, 120, 5)            0         
_________________________________________________________________
dropout_1 (Dropout)          (None, 120, 5)            0         
_________________________________________________________________
bl_2 (BL)                    (None, 60, 2)             7330      
_________________________________________________________________
activation_2 (Activation)    (None, 60, 2)             0         
_________________________________________________________________
dropout_2 (Dropout)          (None, 60, 2)             0         
_________________________________________________________________
tabl (TABL)                  (None, 2)                 129       
_________________________________________________________________
activation_3 (Activation)    (None, 2)                 0         
=================================================================
Total params: 20,259
Trainable params: 20,259
Non-trainable params: 0
_________________________________________________________________
Epoch 1/100
Traceback (most recent call last):
  File "/home/blez/Projects/anomaly_simulation/Zoo/Results/runs/9a7f9efd740f4a91be92b1896ebf8107/.guild/sourcecode/TABL/train.py", line 104, in <module>
…
