…
00:16<00:00, 131.28it/s]Padding data:  99%|█████████▉| 2023/2042 [00:16<00:00, 133.33it/s]Padding data: 100%|█████████▉| 2037/2042 [00:16<00:00, 131.75it/s]Padding data: 100%|██████████| 2042/2042 [00:16<00:00, 120.48it/s]
Model: "model"
_________________________________________________________________
Layer (type)                 Output Shape              Param #   
=================================================================
input_1 (InputLayer)         [(None, 200, 125)]        0         
_________________________________________________________________
bl_1 (BL)                    (None, 120, 5)            25225     
_________________________________________________________________
activation_1 (Activation)    (None, 120, 5)            0         
_________________________________________________________________
dropout_1 (Dropout)          (None, 120, 5)            0         
_________________________________________________________________
bl_2 (BL)                    (None, 60, 2)             7330      
_________________________________________________________________
activation_2 (Activation)    (None, 60, 2)             0         
_________________________________________________________________
dropout_2 (Dropout)          (None, 60, 2)             0         
_________________________________________________________________
tabl (TABL)                  (None, 2)                 129       
_________________________________________________________________
activation_3 (Activation)    (None, 2)                 0         
=================================================================
Total params: 32,684
Trainable params: 32,684
Non-trainable params: 0
_________________________________________________________________
Epoch 1/100
4383/4383 - 115s - loss: 0.8978
Epoch 2/100
4383/4383 - 113s - loss: 0.6213
Epoch 3/100
4383/4383 - 116s - loss: 0.6163
Epoch 4/100
4383/4383 - 113s - loss: 0.6142
Epoch 5/100
4383/4383 - 112s - loss: 0.6141
…
