…
00:17<00:00, 119.15it/s]Padding data:  99%|█████████▉| 2019/2042 [00:17<00:00, 123.61it/s]Padding data: 100%|█████████▉| 2033/2042 [00:17<00:00, 126.35it/s]Padding data: 100%|██████████| 2042/2042 [00:17<00:00, 116.96it/s]
Model: "model"
_________________________________________________________________
Layer (type)                 Output Shape              Param #   
=================================================================
input_1 (InputLayer)         [(None, 200, 125)]        0         
_________________________________________________________________
bl_1 (BL)                    (None, 120, 5)            25225     
_________________________________________________________________
activation_1 (Activation)    (None, 120, 5)            0         
_________________________________________________________________
dropout_1 (Dropout)          (None, 120, 5)            0         
_________________________________________________________________
bl_2 (BL)                    (None, 60, 2)             7330      
_________________________________________________________________
activation_2 (Activation)    (None, 60, 2)             0         
_________________________________________________________________
dropout_2 (Dropout)          (None, 60, 2)             0         
_________________________________________________________________
tabl (TABL)                  (None, 2)                 129       
_________________________________________________________________
activation_3 (Activation)    (None, 2)                 0         
=================================================================
Total params: 32,684
Trainable params: 32,684
Non-trainable params: 0
_________________________________________________________________
Epoch 1/100
4383/4383 - 116s - loss: 0.8030
Epoch 2/100
4383/4383 - 112s - loss: 0.6179
Epoch 3/100
4383/4383 - 109s - loss: 0.6203
Epoch 4/100
4383/4383 - 115s - loss: 0.6150
Epoch 5/100
4383/4383 - 111s - loss: 0.6156
…
