…
00:15<00:00, 131.44it/s]Padding data:  99%|█████████▉| 2028/2042 [00:15<00:00, 133.18it/s]Padding data: 100%|██████████| 2042/2042 [00:15<00:00, 131.86it/s]Padding data: 100%|██████████| 2042/2042 [00:15<00:00, 128.50it/s]
Model: "model"
_________________________________________________________________
Layer (type)                 Output Shape              Param #   
=================================================================
input_1 (InputLayer)         [(None, 400, 125)]        0         
_________________________________________________________________
bl_1 (BL)                    (None, 120, 5)            49225     
_________________________________________________________________
activation_1 (Activation)    (None, 120, 5)            0         
_________________________________________________________________
dropout_1 (Dropout)          (None, 120, 5)            0         
_________________________________________________________________
bl_2 (BL)                    (None, 60, 2)             7330      
_________________________________________________________________
activation_2 (Activation)    (None, 60, 2)             0         
_________________________________________________________________
dropout_2 (Dropout)          (None, 60, 2)             0         
_________________________________________________________________
tabl (TABL)                  (None, 2)                 129       
_________________________________________________________________
activation_3 (Activation)    (None, 2)                 0         
=================================================================
Total params: 56,684
Trainable params: 56,684
Non-trainable params: 0
_________________________________________________________________
Epoch 1/100
4382/4382 - 406s - loss: 0.8083
Epoch 2/100
4382/4382 - 406s - loss: 0.6275
Epoch 3/100
4382/4382 - 402s - loss: 0.6142
Epoch 4/100
4382/4382 - 406s - loss: 0.7824
Epoch 5/100
4382/4382 - 406s - loss: 0.6145
…
