…
00:03<00:00, 606.92it/s]Padding data:  97%|█████████▋| 1973/2042 [00:03<00:00, 607.72it/s]Padding data: 100%|█████████▉| 2034/2042 [00:03<00:00, 608.04it/s]Padding data: 100%|██████████| 2042/2042 [00:03<00:00, 607.75it/s]
Model: "model"
_________________________________________________________________
Layer (type)                 Output Shape              Param #   
=================================================================
input_1 (InputLayer)         [(None, 500, 60)]         0         
_________________________________________________________________
bl_1 (BL)                    (None, 120, 5)            60900     
_________________________________________________________________
activation_1 (Activation)    (None, 120, 5)            0         
_________________________________________________________________
dropout_1 (Dropout)          (None, 120, 5)            0         
_________________________________________________________________
bl_2 (BL)                    (None, 60, 2)             7330      
_________________________________________________________________
activation_2 (Activation)    (None, 60, 2)             0         
_________________________________________________________________
dropout_2 (Dropout)          (None, 60, 2)             0         
_________________________________________________________________
tabl (TABL)                  (None, 2)                 129       
_________________________________________________________________
activation_3 (Activation)    (None, 2)                 0         
=================================================================
Total params: 68,359
Trainable params: 68,359
Non-trainable params: 0
_________________________________________________________________
Epoch 1/100
4382/4382 - 85s - loss: 0.7271
Epoch 2/100
4382/4382 - 82s - loss: 0.5804
Epoch 3/100
4382/4382 - 82s - loss: 0.5676
Epoch 4/100
4382/4382 - 81s - loss: 0.5579
Epoch 5/100
4382/4382 - 82s - loss: 0.5429
…
