…
00:05<00:00, 385.41it/s]Padding data:  98%|█████████▊| 2001/2042 [00:05<00:00, 374.25it/s]Padding data: 100%|█████████▉| 2039/2042 [00:05<00:00, 373.63it/s]Padding data: 100%|██████████| 2042/2042 [00:05<00:00, 376.03it/s]
Model: "model"
_________________________________________________________________
Layer (type)                 Output Shape              Param #   
=================================================================
input_1 (InputLayer)         [(None, 400, 7)]          0         
_________________________________________________________________
bl_1 (BL)                    (None, 120, 5)            48635     
_________________________________________________________________
activation_1 (Activation)    (None, 120, 5)            0         
_________________________________________________________________
dropout_1 (Dropout)          (None, 120, 5)            0         
_________________________________________________________________
bl_2 (BL)                    (None, 60, 2)             7330      
_________________________________________________________________
activation_2 (Activation)    (None, 60, 2)             0         
_________________________________________________________________
dropout_2 (Dropout)          (None, 60, 2)             0         
_________________________________________________________________
tabl (TABL)                  (None, 2)                 129       
_________________________________________________________________
activation_3 (Activation)    (None, 2)                 0         
=================================================================
Total params: 56,094
Trainable params: 56,094
Non-trainable params: 0
_________________________________________________________________
Epoch 1/100
4407/4407 - 36s - loss: 0.5967
Epoch 2/100
4407/4407 - 34s - loss: 0.5678
Epoch 3/100
4407/4407 - 34s - loss: 0.5533
Epoch 4/100
4407/4407 - 34s - loss: 0.5432
Epoch 5/100
4407/4407 - 34s - loss: 0.5340
…
