…
00:04<00:00, 437.45it/s]Padding data:  98%|█████████▊| 1996/2042 [00:04<00:00, 431.37it/s]Padding data: 100%|█████████▉| 2041/2042 [00:04<00:00, 436.83it/s]Padding data: 100%|██████████| 2042/2042 [00:04<00:00, 416.10it/s]
Model: "model"
_________________________________________________________________
Layer (type)                 Output Shape              Param #   
=================================================================
input_1 (InputLayer)         [(None, 500, 7)]          0         
_________________________________________________________________
bl_1 (BL)                    (None, 120, 5)            60635     
_________________________________________________________________
activation_1 (Activation)    (None, 120, 5)            0         
_________________________________________________________________
dropout_1 (Dropout)          (None, 120, 5)            0         
_________________________________________________________________
bl_2 (BL)                    (None, 60, 2)             7330      
_________________________________________________________________
activation_2 (Activation)    (None, 60, 2)             0         
_________________________________________________________________
dropout_2 (Dropout)          (None, 60, 2)             0         
_________________________________________________________________
tabl (TABL)                  (None, 2)                 129       
_________________________________________________________________
activation_3 (Activation)    (None, 2)                 0         
=================================================================
Total params: 68,094
Trainable params: 68,094
Non-trainable params: 0
_________________________________________________________________
Epoch 1/100
4406/4406 - 39s - loss: 0.6188
Epoch 2/100
4406/4406 - 35s - loss: 0.5693
Epoch 3/100
4406/4406 - 35s - loss: 0.5508
Epoch 4/100
4406/4406 - 35s - loss: 0.5344
Epoch 5/100
4406/4406 - 35s - loss: 0.5233
…
