…
0:00, 408.95it/s]Padding data:  98%|#########7| 2000/2042 [00:04<00:00, 413.04it/s]Padding data: 100%|##########| 2042/2042 [00:05<00:00, 410.57it/s]Padding data: 100%|##########| 2042/2042 [00:05<00:00, 404.34it/s]
Model: "model"
_________________________________________________________________
Layer (type)                 Output Shape              Param #   
=================================================================
input_1 (InputLayer)         [(None, 100, 60)]         0         
_________________________________________________________________
bl_1 (BL)                    (None, 120, 5)            12900     
_________________________________________________________________
activation_1 (Activation)    (None, 120, 5)            0         
_________________________________________________________________
dropout_1 (Dropout)          (None, 120, 5)            0         
_________________________________________________________________
bl_2 (BL)                    (None, 60, 2)             7330      
_________________________________________________________________
activation_2 (Activation)    (None, 60, 2)             0         
_________________________________________________________________
dropout_2 (Dropout)          (None, 60, 2)             0         
_________________________________________________________________
tabl (TABL)                  (None, 4)                 251       
_________________________________________________________________
activation_3 (Activation)    (None, 4)                 0         
=================================================================
Total params: 20,481
Trainable params: 20,481
Non-trainable params: 0
_________________________________________________________________
Epoch 1/100
4388/4388 - 48s - loss: 1.1088
Epoch 2/100
4388/4388 - 46s - loss: 0.9299
Epoch 3/100
4388/4388 - 46s - loss: 0.8946
Epoch 4/100
4388/4388 - 46s - loss: 0.8650
Epoch 5/100
…
0:00, 402.50it/s]Padding data:  98%|#########7| 1991/2042 [00:04<00:00, 402.66it/s]Padding data: 100%|#########9| 2032/2042 [00:05<00:00, 402.77it/s]Padding data: 100%|##########| 2042/2042 [00:05<00:00, 398.88it/s]
Model: "model"
_________________________________________________________________
Layer (type)                 Output Shape              Param #   
=================================================================
input_1 (InputLayer)         [(None, 200, 60)]         0         
_________________________________________________________________
bl_1 (BL)                    (None, 120, 5)            24900     
_________________________________________________________________
activation_1 (Activation)    (None, 120, 5)            0         
_________________________________________________________________
dropout_1 (Dropout)          (None, 120, 5)            0         
_________________________________________________________________
bl_2 (BL)                    (None, 60, 2)             7330      
_________________________________________________________________
activation_2 (Activation)    (None, 60, 2)             0         
_________________________________________________________________
dropout_2 (Dropout)          (None, 60, 2)             0         
_________________________________________________________________
tabl (TABL)                  (None, 4)                 251       
_________________________________________________________________
activation_3 (Activation)    (None, 4)                 0         
=================================================================
Total params: 32,481
Trainable params: 32,481
Non-trainable params: 0
_________________________________________________________________
Epoch 1/100
4388/4388 - 79s - loss: 1.0107
Epoch 2/100
4388/4388 - 78s - loss: 0.8819
Epoch 3/100
4388/4388 - 75s - loss: 0.8524
Epoch 4/100
4388/4388 - 75s - loss: 0.8297
Epoch 5/100
…
0:00, 417.59it/s]Padding data:  97%|#########6| 1971/2042 [00:04<00:00, 413.73it/s]Padding data:  99%|#########8| 2014/2042 [00:04<00:00, 415.20it/s]Padding data: 100%|##########| 2042/2042 [00:04<00:00, 413.38it/s]
Model: "model"
_________________________________________________________________
Layer (type)                 Output Shape              Param #   
=================================================================
input_1 (InputLayer)         [(None, 500, 60)]         0         
_________________________________________________________________
bl_1 (BL)                    (None, 120, 5)            60900     
_________________________________________________________________
activation_1 (Activation)    (None, 120, 5)            0         
_________________________________________________________________
dropout_1 (Dropout)          (None, 120, 5)            0         
_________________________________________________________________
bl_2 (BL)                    (None, 60, 2)             7330      
_________________________________________________________________
activation_2 (Activation)    (None, 60, 2)             0         
_________________________________________________________________
dropout_2 (Dropout)          (None, 60, 2)             0         
_________________________________________________________________
tabl (TABL)                  (None, 4)                 251       
_________________________________________________________________
activation_3 (Activation)    (None, 4)                 0         
=================================================================
Total params: 68,481
Trainable params: 68,481
Non-trainable params: 0
_________________________________________________________________
Epoch 1/100
4386/4386 - 162s - loss: 1.0436
Epoch 2/100
4386/4386 - 160s - loss: 0.8210
Epoch 3/100
4386/4386 - 160s - loss: 0.7921
Epoch 4/100
4386/4386 - 160s - loss: 0.7711
…
0%|##########| 2042/2042 [00:04<00:00, 410.63it/s]
Model: "model"
__________________________________________________________________________________________________
Layer (type)                    Output Shape         Param #     Connected to                     
==================================================================================================
input_1 (InputLayer)            [(None, 100, 60)]    0                                            
__________________________________________________________________________________________________
conv1d (Conv1D)                 (None, 100, 64)      30784       input_1[0][0]                    
__________________________________________________________________________________________________
batch_normalization (BatchNorma (None, 100, 64)      256         conv1d[0][0]                     
__________________________________________________________________________________________________
activation (Activation)         (None, 100, 64)      0           batch_normalization[0][0]        
__________________________________________________________________________________________________
conv1d_1 (Conv1D)               (None, 100, 64)      20544       activation[0][0]                 
__________________________________________________________________________________________________
batch_normalization_1 (BatchNor (None, 100, 64)      256         conv1d_1[0][0]                   
__________________________________________________________________________________________________
activation_1 (Activation)       (None, 100, 64)      0           batch_normalization_1[0][0]      
__________________________________________________________________________________________________
conv1d_3 (Conv1D)               (None, 100, 64)      3904        input_1[0][0]                    
__________________________________________________________________________________________________
conv1d_2 (Conv1D)               (None, 100, 64)      12352       activation_1[0][0]               
__________________________________________________________________________________________________
batch_normalization_3 (BatchNor (None, 100, 64)      256         conv1d_3[0][0]                   
__________________________________________________________________________________________________
batch_normalization_2 (BatchNor (None, 100, 64)      256         conv1d_2[0][0]                   
__________________________________________________________________________________________________
add (Add)                       (None, 100, 64)      0           batch_normalization_3[0][0]      
                                                                 batch_normalization_2[0][0]      
__________________________________________________________________________________________________
activation_2 (Activation)       (None, 100, 64)      0           add[0][0]                        
__________________________________________________________________________________________________
conv1d_4 (Conv1D)               (None, 100, 128)     65664       activation_2[0][0]               
__________________________________________________________________________________________________
batch_normalization_4 (BatchNor (None, 100, 128)     512         conv1d_4[0][0]                   
__________________________________________________________________________________________________
activation_3 (Activation)       (None, 100, 128)     0           batch_normalization_4[0][0]      
__________________________________________________________________________________________________
conv1d_5 (Conv1D)               (None, 100, 128)     82048       activation_3[0][0]               
__________________________________________________________________________________________________
batch_normalization_5 (BatchNor (None, 100, 128)     512         conv1d_5[0][0]                   
__________________________________________________________________________________________________
activation_4 (Activation)       (None, 100, 128)     0           batch_normalization_5[0][0]      
__________________________________________________________________________________________________
conv1d_7 (Conv1D)               (None, 100, 128)     8320        activation_2[0][0]               
__________________________________________________________________________________________________
conv1d_6 (Conv1D)               (None, 100, 128)     49280       activation_4[0][0]               
__________________________________________________________________________________________________
batch_normalization_7 (BatchNor (None, 100, 128)     512         conv1d_7[0][0]                   
__________________________________________________________________________________________________
batch_normalization_6 (BatchNor (None, 100, 128)     512         conv1d_6[0][0]                   
__________________________________________________________________________________________________
add_1 (Add)                     (None, 100, 128)     0           batch_normalization_7[0][0]      
                                                                 batch_normalization_6[0][0]      
__________________________________________________________________________________________________
activation_5 (Activation)       (None, 100, 128)     0           add_1[0][0]                      
__________________________________________________________________________________________________
conv1d_8 (Conv1D)               (None, 100, 128)     131200      activation_5[0][0]               
__________________________________________________________________________________________________
batch_normalization_8 (BatchNor (None, 100, 128)     512         conv1d_8[0][0]                   
__________________________________________________________________________________________________
activation_6 (Activation)       (None, 100, 128)     0           batch_normalization_8[0][0]      
__________________________________________________________________________________________________
conv1d_9 (Conv1D)               (None, 100, 128)     82048       activation_6[0][0]               
__________________________________________________________________________________________________
batch_normalization_9 (BatchNor (None, 100, 128)     512         conv1d_9[0][0]                   
__________________________________________________________________________________________________
activation_7 (Activation)       (None, 100, 128)     0           batch_normalization_9[0][0]      
__________________________________________________________________________________________________
conv1d_10 (Conv1D)              (None, 100, 128)     49280       activation_7[0][0]               
__________________________________________________________________________________________________
batch_normalization_11 (BatchNo (None, 100, 128)     512         activation_5[0][0]               
__________________________________________________________________________________________________
batch_normalization_10 (BatchNo (None, 100, 128)     512         conv1d_10[0][0]                  
__________________________________________________________________________________________________
add_2 (Add)                     (None, 100, 128)     0           batch_normalization_11[0][0]     
                                                                 batch_normalization_10[0][0]     
__________________________________________________________________________________________________
activation_8 (Activation)       (None, 100, 128)     0           add_2[0][0]                      
__________________________________________________________________________________________________
global_average_pooling1d (Globa (None, 128)          0           activation_8[0][0]               
__________________________________________________________________________________________________
dense (Dense)                   (None, 4)            516         global_average_pooling1d[0][0]   
==================================================================================================
Total params: 541,060
Trainable params: 538,500
Non-trainable params: 2,560
__________________________________________________________________________________________________
Epoch 1/100
4388/4388 - 310s - loss: 0.9679
Epoch 2/100
4388/4388 - 270s - loss: 0.9250
…
0%|##########| 2042/2042 [00:05<00:00, 377.83it/s]
Model: "model"
__________________________________________________________________________________________________
Layer (type)                    Output Shape         Param #     Connected to                     
==================================================================================================
input_1 (InputLayer)            [(None, 200, 60)]    0                                            
__________________________________________________________________________________________________
conv1d (Conv1D)                 (None, 200, 64)      30784       input_1[0][0]                    
__________________________________________________________________________________________________
batch_normalization (BatchNorma (None, 200, 64)      256         conv1d[0][0]                     
__________________________________________________________________________________________________
activation (Activation)         (None, 200, 64)      0           batch_normalization[0][0]        
__________________________________________________________________________________________________
conv1d_1 (Conv1D)               (None, 200, 64)      20544       activation[0][0]                 
__________________________________________________________________________________________________
batch_normalization_1 (BatchNor (None, 200, 64)      256         conv1d_1[0][0]                   
__________________________________________________________________________________________________
activation_1 (Activation)       (None, 200, 64)      0           batch_normalization_1[0][0]      
__________________________________________________________________________________________________
conv1d_3 (Conv1D)               (None, 200, 64)      3904        input_1[0][0]                    
__________________________________________________________________________________________________
conv1d_2 (Conv1D)               (None, 200, 64)      12352       activation_1[0][0]               
__________________________________________________________________________________________________
batch_normalization_3 (BatchNor (None, 200, 64)      256         conv1d_3[0][0]                   
__________________________________________________________________________________________________
batch_normalization_2 (BatchNor (None, 200, 64)      256         conv1d_2[0][0]                   
__________________________________________________________________________________________________
add (Add)                       (None, 200, 64)      0           batch_normalization_3[0][0]      
                                                                 batch_normalization_2[0][0]      
__________________________________________________________________________________________________
activation_2 (Activation)       (None, 200, 64)      0           add[0][0]                        
__________________________________________________________________________________________________
conv1d_4 (Conv1D)               (None, 200, 128)     65664       activation_2[0][0]               
__________________________________________________________________________________________________
batch_normalization_4 (BatchNor (None, 200, 128)     512         conv1d_4[0][0]                   
__________________________________________________________________________________________________
activation_3 (Activation)       (None, 200, 128)     0           batch_normalization_4[0][0]      
__________________________________________________________________________________________________
conv1d_5 (Conv1D)               (None, 200, 128)     82048       activation_3[0][0]               
__________________________________________________________________________________________________
batch_normalization_5 (BatchNor (None, 200, 128)     512         conv1d_5[0][0]                   
__________________________________________________________________________________________________
activation_4 (Activation)       (None, 200, 128)     0           batch_normalization_5[0][0]      
__________________________________________________________________________________________________
conv1d_7 (Conv1D)               (None, 200, 128)     8320        activation_2[0][0]               
__________________________________________________________________________________________________
conv1d_6 (Conv1D)               (None, 200, 128)     49280       activation_4[0][0]               
__________________________________________________________________________________________________
batch_normalization_7 (BatchNor (None, 200, 128)     512         conv1d_7[0][0]                   
__________________________________________________________________________________________________
batch_normalization_6 (BatchNor (None, 200, 128)     512         conv1d_6[0][0]                   
__________________________________________________________________________________________________
add_1 (Add)                     (None, 200, 128)     0           batch_normalization_7[0][0]      
                                                                 batch_normalization_6[0][0]      
__________________________________________________________________________________________________
activation_5 (Activation)       (None, 200, 128)     0           add_1[0][0]                      
__________________________________________________________________________________________________
conv1d_8 (Conv1D)               (None, 200, 128)     131200      activation_5[0][0]               
__________________________________________________________________________________________________
batch_normalization_8 (BatchNor (None, 200, 128)     512         conv1d_8[0][0]                   
__________________________________________________________________________________________________
activation_6 (Activation)       (None, 200, 128)     0           batch_normalization_8[0][0]      
__________________________________________________________________________________________________
conv1d_9 (Conv1D)               (None, 200, 128)     82048       activation_6[0][0]               
__________________________________________________________________________________________________
batch_normalization_9 (BatchNor (None, 200, 128)     512         conv1d_9[0][0]                   
__________________________________________________________________________________________________
activation_7 (Activation)       (None, 200, 128)     0           batch_normalization_9[0][0]      
__________________________________________________________________________________________________
conv1d_10 (Conv1D)              (None, 200, 128)     49280       activation_7[0][0]               
__________________________________________________________________________________________________
batch_normalization_11 (BatchNo (None, 200, 128)     512         activation_5[0][0]               
__________________________________________________________________________________________________
batch_normalization_10 (BatchNo (None, 200, 128)     512         conv1d_10[0][0]                  
__________________________________________________________________________________________________
add_2 (Add)                     (None, 200, 128)     0           batch_normalization_11[0][0]     
                                                                 batch_normalization_10[0][0]     
__________________________________________________________________________________________________
activation_8 (Activation)       (None, 200, 128)     0           add_2[0][0]                      
__________________________________________________________________________________________________
global_average_pooling1d (Globa (None, 128)          0           activation_8[0][0]               
__________________________________________________________________________________________________
dense (Dense)                   (None, 4)            516         global_average_pooling1d[0][0]   
==================================================================================================
Total params: 541,060
Trainable params: 538,500
Non-trainable params: 2,560
__________________________________________________________________________________________________
Epoch 1/100
4388/4388 - 496s - loss: 0.9595
Epoch 2/100
4388/4388 - 549s - loss: 0.9061
…
0%|##########| 2042/2042 [00:05<00:00, 391.14it/s]
Model: "model"
__________________________________________________________________________________________________
Layer (type)                    Output Shape         Param #     Connected to                     
==================================================================================================
input_1 (InputLayer)            [(None, 500, 60)]    0                                            
__________________________________________________________________________________________________
conv1d (Conv1D)                 (None, 500, 64)      30784       input_1[0][0]                    
__________________________________________________________________________________________________
batch_normalization (BatchNorma (None, 500, 64)      256         conv1d[0][0]                     
__________________________________________________________________________________________________
activation (Activation)         (None, 500, 64)      0           batch_normalization[0][0]        
__________________________________________________________________________________________________
conv1d_1 (Conv1D)               (None, 500, 64)      20544       activation[0][0]                 
__________________________________________________________________________________________________
batch_normalization_1 (BatchNor (None, 500, 64)      256         conv1d_1[0][0]                   
__________________________________________________________________________________________________
activation_1 (Activation)       (None, 500, 64)      0           batch_normalization_1[0][0]      
__________________________________________________________________________________________________
conv1d_3 (Conv1D)               (None, 500, 64)      3904        input_1[0][0]                    
__________________________________________________________________________________________________
conv1d_2 (Conv1D)               (None, 500, 64)      12352       activation_1[0][0]               
__________________________________________________________________________________________________
batch_normalization_3 (BatchNor (None, 500, 64)      256         conv1d_3[0][0]                   
__________________________________________________________________________________________________
batch_normalization_2 (BatchNor (None, 500, 64)      256         conv1d_2[0][0]                   
__________________________________________________________________________________________________
add (Add)                       (None, 500, 64)      0           batch_normalization_3[0][0]      
                                                                 batch_normalization_2[0][0]      
__________________________________________________________________________________________________
activation_2 (Activation)       (None, 500, 64)      0           add[0][0]                        
__________________________________________________________________________________________________
conv1d_4 (Conv1D)               (None, 500, 128)     65664       activation_2[0][0]               
__________________________________________________________________________________________________
batch_normalization_4 (BatchNor (None, 500, 128)     512         conv1d_4[0][0]                   
__________________________________________________________________________________________________
activation_3 (Activation)       (None, 500, 128)     0           batch_normalization_4[0][0]      
__________________________________________________________________________________________________
conv1d_5 (Conv1D)               (None, 500, 128)     82048       activation_3[0][0]               
__________________________________________________________________________________________________
batch_normalization_5 (BatchNor (None, 500, 128)     512         conv1d_5[0][0]                   
__________________________________________________________________________________________________
activation_4 (Activation)       (None, 500, 128)     0           batch_normalization_5[0][0]      
__________________________________________________________________________________________________
conv1d_7 (Conv1D)               (None, 500, 128)     8320        activation_2[0][0]               
__________________________________________________________________________________________________
conv1d_6 (Conv1D)               (None, 500, 128)     49280       activation_4[0][0]               
__________________________________________________________________________________________________
batch_normalization_7 (BatchNor (None, 500, 128)     512         conv1d_7[0][0]                   
__________________________________________________________________________________________________
batch_normalization_6 (BatchNor (None, 500, 128)     512         conv1d_6[0][0]                   
__________________________________________________________________________________________________
add_1 (Add)                     (None, 500, 128)     0           batch_normalization_7[0][0]      
                                                                 batch_normalization_6[0][0]      
__________________________________________________________________________________________________
activation_5 (Activation)       (None, 500, 128)     0           add_1[0][0]                      
__________________________________________________________________________________________________
conv1d_8 (Conv1D)               (None, 500, 128)     131200      activation_5[0][0]               
__________________________________________________________________________________________________
batch_normalization_8 (BatchNor (None, 500, 128)     512         conv1d_8[0][0]                   
__________________________________________________________________________________________________
activation_6 (Activation)       (None, 500, 128)     0           batch_normalization_8[0][0]      
__________________________________________________________________________________________________
conv1d_9 (Conv1D)               (None, 500, 128)     82048       activation_6[0][0]               
__________________________________________________________________________________________________
batch_normalization_9 (BatchNor (None, 500, 128)     512         conv1d_9[0][0]                   
__________________________________________________________________________________________________
activation_7 (Activation)       (None, 500, 128)     0           batch_normalization_9[0][0]      
__________________________________________________________________________________________________
conv1d_10 (Conv1D)              (None, 500, 128)     49280       activation_7[0][0]               
__________________________________________________________________________________________________
batch_normalization_11 (BatchNo (None, 500, 128)     512         activation_5[0][0]               
__________________________________________________________________________________________________
batch_normalization_10 (BatchNo (None, 500, 128)     512         conv1d_10[0][0]                  
__________________________________________________________________________________________________
add_2 (Add)                     (None, 500, 128)     0           batch_normalization_11[0][0]     
                                                                 batch_normalization_10[0][0]     
__________________________________________________________________________________________________
activation_8 (Activation)       (None, 500, 128)     0           add_2[0][0]                      
__________________________________________________________________________________________________
global_average_pooling1d (Globa (None, 128)          0           activation_8[0][0]               
__________________________________________________________________________________________________
dense (Dense)                   (None, 4)            516         global_average_pooling1d[0][0]   
==================================================================================================
Total params: 541,060
Trainable params: 538,500
Non-trainable params: 2,560
__________________________________________________________________________________________________
Epoch 1/100
4386/4386 - 1238s - loss: 0.9328
Epoch 2/100
4386/4386 - 1348s - loss: 0.8643
…
