…
0:00, 417.59it/s]Padding data:  97%|#########6| 1971/2042 [00:04<00:00, 413.73it/s]Padding data:  99%|#########8| 2014/2042 [00:04<00:00, 415.20it/s]Padding data: 100%|##########| 2042/2042 [00:04<00:00, 413.38it/s]
Model: "model"
_________________________________________________________________
Layer (type)                 Output Shape              Param #   
=================================================================
input_1 (InputLayer)         [(None, 500, 60)]         0         
_________________________________________________________________
bl_1 (BL)                    (None, 120, 5)            60900     
_________________________________________________________________
activation_1 (Activation)    (None, 120, 5)            0         
_________________________________________________________________
dropout_1 (Dropout)          (None, 120, 5)            0         
_________________________________________________________________
bl_2 (BL)                    (None, 60, 2)             7330      
_________________________________________________________________
activation_2 (Activation)    (None, 60, 2)             0         
_________________________________________________________________
dropout_2 (Dropout)          (None, 60, 2)             0         
_________________________________________________________________
tabl (TABL)                  (None, 4)                 251       
_________________________________________________________________
activation_3 (Activation)    (None, 4)                 0         
=================================================================
Total params: 68,481
Trainable params: 68,481
Non-trainable params: 0
_________________________________________________________________
Epoch 1/100
4386/4386 - 162s - loss: 1.0436
Epoch 2/100
4386/4386 - 160s - loss: 0.8210
Epoch 3/100
4386/4386 - 160s - loss: 0.7921
Epoch 4/100
4386/4386 - 160s - loss: 0.7711
…
