…
Padding data:   0%|          | 0/368 [00:00<?, ?it/s]Padding data:  29%|██▊       | 105/368 [00:00<00:00, 1049.73it/s]Padding data:  58%|█████▊    | 214/368 [00:00<00:00, 1070.61it/s]Padding data:  88%|████████▊ | 323/368 [00:00<00:00, 1077.58it/s]Padding data: 100%|██████████| 368/368 [00:00<00:00, 1066.91it/s]
Model: "model"
_________________________________________________________________
Layer (type)                 Output Shape              Param #   
=================================================================
input_1 (InputLayer)         [(None, 100, 7)]          0         
_________________________________________________________________
bl_1 (BL)                    (None, 120, 5)            12635     
_________________________________________________________________
activation_1 (Activation)    (None, 120, 5)            0         
_________________________________________________________________
dropout_1 (Dropout)          (None, 120, 5)            0         
_________________________________________________________________
bl_2 (BL)                    (None, 60, 2)             7330      
_________________________________________________________________
activation_2 (Activation)    (None, 60, 2)             0         
_________________________________________________________________
dropout_2 (Dropout)          (None, 60, 2)             0         
_________________________________________________________________
tabl (TABL)                  (None, 2)                 129       
_________________________________________________________________
activation_3 (Activation)    (None, 2)                 0         
=================================================================
Total params: 20,094
Trainable params: 20,094
Non-trainable params: 0
_________________________________________________________________
Epoch 1/2
424/424 - 3s - loss: 0.6864
Epoch 2/2
424/424 - 2s - loss: 0.6690
INFO: [tensorflow] Assets written to: model/assets
Train f1_avg: 0.38167610021473247
Test f1_avg: 0.382939788230246
…
