…
Padding data:   0%|          | 0/368 [00:00<?, ?it/s]Padding data:  22%|██▏       | 80/368 [00:00<00:00, 798.58it/s]Padding data:  44%|████▍     | 162/368 [00:00<00:00, 808.86it/s]Padding data:  66%|██████▋   | 244/368 [00:00<00:00, 813.64it/s]Padding data:  89%|████████▊ | 326/368 [00:00<00:00, 813.01it/s]Padding data: 100%|██████████| 368/368 [00:00<00:00, 811.73it/s]
Model: "model"
_________________________________________________________________
Layer (type)                 Output Shape              Param #   
=================================================================
input_1 (InputLayer)         [(None, 100, 60)]         0         
_________________________________________________________________
bl_1 (BL)                    (None, 120, 5)            12900     
_________________________________________________________________
activation_1 (Activation)    (None, 120, 5)            0         
_________________________________________________________________
dropout_1 (Dropout)          (None, 120, 5)            0         
_________________________________________________________________
bl_2 (BL)                    (None, 60, 2)             7330      
_________________________________________________________________
activation_2 (Activation)    (None, 60, 2)             0         
_________________________________________________________________
dropout_2 (Dropout)          (None, 60, 2)             0         
_________________________________________________________________
tabl (TABL)                  (None, 2)                 129       
_________________________________________________________________
activation_3 (Activation)    (None, 2)                 0         
=================================================================
Total params: 20,359
Trainable params: 20,359
Non-trainable params: 0
_________________________________________________________________
Epoch 1/2
376/376 - 5s - loss: 1.1046
Epoch 2/2
376/376 - 4s - loss: 0.7188
INFO: [tensorflow] Assets written to: model/assets
Train f1_avg: 0.5200430913085069
Test f1_avg: 0.5090913627240552
