…
00:15<00:00, 132.67it/s]Padding data:  99%|█████████▊| 2015/2042 [00:15<00:00, 133.57it/s]Padding data:  99%|█████████▉| 2030/2042 [00:15<00:00, 135.53it/s]Padding data: 100%|██████████| 2042/2042 [00:16<00:00, 127.54it/s]
Model: "model"
_________________________________________________________________
Layer (type)                 Output Shape              Param #   
=================================================================
input_1 (InputLayer)         [(None, 100, 125)]        0         
_________________________________________________________________
bl_1 (BL)                    (None, 120, 5)            13225     
_________________________________________________________________
activation_1 (Activation)    (None, 120, 5)            0         
_________________________________________________________________
dropout_1 (Dropout)          (None, 120, 5)            0         
_________________________________________________________________
bl_2 (BL)                    (None, 60, 2)             7330      
_________________________________________________________________
activation_2 (Activation)    (None, 60, 2)             0         
_________________________________________________________________
dropout_2 (Dropout)          (None, 60, 2)             0         
_________________________________________________________________
tabl (TABL)                  (None, 2)                 129       
_________________________________________________________________
activation_3 (Activation)    (None, 2)                 0         
=================================================================
Total params: 20,684
Trainable params: 20,684
Non-trainable params: 0
_________________________________________________________________
Epoch 1/100
4383/4383 - 69s - loss: 1.4566
Epoch 2/100
4383/4383 - 64s - loss: 0.6148
Epoch 3/100
4383/4383 - 66s - loss: 0.6159
Epoch 4/100
4383/4383 - 66s - loss: 0.6138
Epoch 5/100
4383/4383 - 66s - loss: 0.6137
…
