…
00:02<00:00, 676.27it/s]Padding data:  96%|█████████▋| 1966/2042 [00:02<00:00, 675.93it/s]Padding data: 100%|█████████▉| 2034/2042 [00:03<00:00, 676.29it/s]Padding data: 100%|██████████| 2042/2042 [00:03<00:00, 669.14it/s]
Model: "model"
_________________________________________________________________
Layer (type)                 Output Shape              Param #   
=================================================================
input_1 (InputLayer)         [(None, 100, 40)]         0         
_________________________________________________________________
bl_1 (BL)                    (None, 120, 5)            12800     
_________________________________________________________________
activation_1 (Activation)    (None, 120, 5)            0         
_________________________________________________________________
dropout_1 (Dropout)          (None, 120, 5)            0         
_________________________________________________________________
bl_2 (BL)                    (None, 60, 2)             7330      
_________________________________________________________________
activation_2 (Activation)    (None, 60, 2)             0         
_________________________________________________________________
dropout_2 (Dropout)          (None, 60, 2)             0         
_________________________________________________________________
tabl (TABL)                  (None, 2)                 129       
_________________________________________________________________
activation_3 (Activation)    (None, 2)                 0         
=================================================================
Total params: 20,259
Trainable params: 20,259
Non-trainable params: 0
_________________________________________________________________
Epoch 1/100
4383/4383 - 21s - loss: 0.6643
Epoch 2/100
4383/4383 - 20s - loss: 0.6103
Epoch 3/100
4383/4383 - 20s - loss: 0.5995
Epoch 4/100
4383/4383 - 20s - loss: 0.5950
Epoch 5/100
4383/4383 - 20s - loss: 0.5921
…
