…
00:04<00:00, 399.26it/s]Padding data:  97%|█████████▋| 1972/2042 [00:04<00:00, 397.62it/s]Padding data:  99%|█████████▊| 2012/2042 [00:04<00:00, 396.55it/s]Padding data: 100%|██████████| 2042/2042 [00:05<00:00, 404.46it/s]
Model: "model"
_________________________________________________________________
Layer (type)                 Output Shape              Param #   
=================================================================
input_1 (InputLayer)         [(None, 200, 7)]          0         
_________________________________________________________________
bl_1 (BL)                    (None, 120, 5)            24635     
_________________________________________________________________
activation_1 (Activation)    (None, 120, 5)            0         
_________________________________________________________________
dropout_1 (Dropout)          (None, 120, 5)            0         
_________________________________________________________________
bl_2 (BL)                    (None, 60, 2)             7330      
_________________________________________________________________
activation_2 (Activation)    (None, 60, 2)             0         
_________________________________________________________________
dropout_2 (Dropout)          (None, 60, 2)             0         
_________________________________________________________________
tabl (TABL)                  (None, 2)                 129       
_________________________________________________________________
activation_3 (Activation)    (None, 2)                 0         
=================================================================
Total params: 32,094
Trainable params: 32,094
Non-trainable params: 0
_________________________________________________________________
Epoch 1/100
4407/4407 - 29s - loss: 0.6061
Epoch 2/100
4407/4407 - 32s - loss: 0.5784
Epoch 3/100
4407/4407 - 32s - loss: 0.5670
Epoch 4/100
4407/4407 - 27s - loss: 0.5564
Epoch 5/100
4407/4407 - 32s - loss: 0.5474
…
