…
00:21<00:00, 104.93it/s]Padding data:  99%|█████████▉| 2020/2042 [00:21<00:00, 106.73it/s]Padding data: 100%|█████████▉| 2032/2042 [00:21<00:00, 109.32it/s]Padding data: 100%|██████████| 2042/2042 [00:21<00:00, 95.06it/s] 
Model: "model"
_________________________________________________________________
Layer (type)                 Output Shape              Param #   
=================================================================
input_1 (InputLayer)         [(None, 500, 125)]        0         
_________________________________________________________________
bl_1 (BL)                    (None, 120, 5)            61225     
_________________________________________________________________
activation_1 (Activation)    (None, 120, 5)            0         
_________________________________________________________________
dropout_1 (Dropout)          (None, 120, 5)            0         
_________________________________________________________________
bl_2 (BL)                    (None, 60, 2)             7330      
_________________________________________________________________
activation_2 (Activation)    (None, 60, 2)             0         
_________________________________________________________________
dropout_2 (Dropout)          (None, 60, 2)             0         
_________________________________________________________________
tabl (TABL)                  (None, 2)                 129       
_________________________________________________________________
activation_3 (Activation)    (None, 2)                 0         
=================================================================
Total params: 68,684
Trainable params: 68,684
Non-trainable params: 0
_________________________________________________________________
Epoch 1/100
4382/4382 - 540s - loss: 0.8289
Epoch 2/100
4382/4382 - 540s - loss: 0.6349
Epoch 3/100
4382/4382 - 541s - loss: 0.6142
Epoch 4/100
4382/4382 - 541s - loss: 0.6143
Epoch 5/100
4382/4382 - 540s - loss: 0.6141
…
