…
0:00, 408.95it/s]Padding data:  98%|#########7| 2000/2042 [00:04<00:00, 413.04it/s]Padding data: 100%|##########| 2042/2042 [00:05<00:00, 410.57it/s]Padding data: 100%|##########| 2042/2042 [00:05<00:00, 404.34it/s]
Model: "model"
_________________________________________________________________
Layer (type)                 Output Shape              Param #   
=================================================================
input_1 (InputLayer)         [(None, 100, 60)]         0         
_________________________________________________________________
bl_1 (BL)                    (None, 120, 5)            12900     
_________________________________________________________________
activation_1 (Activation)    (None, 120, 5)            0         
_________________________________________________________________
dropout_1 (Dropout)          (None, 120, 5)            0         
_________________________________________________________________
bl_2 (BL)                    (None, 60, 2)             7330      
_________________________________________________________________
activation_2 (Activation)    (None, 60, 2)             0         
_________________________________________________________________
dropout_2 (Dropout)          (None, 60, 2)             0         
_________________________________________________________________
tabl (TABL)                  (None, 4)                 251       
_________________________________________________________________
activation_3 (Activation)    (None, 4)                 0         
=================================================================
Total params: 20,481
Trainable params: 20,481
Non-trainable params: 0
_________________________________________________________________
Epoch 1/100
4388/4388 - 48s - loss: 1.1088
Epoch 2/100
4388/4388 - 46s - loss: 0.9299
Epoch 3/100
4388/4388 - 46s - loss: 0.8946
Epoch 4/100
4388/4388 - 46s - loss: 0.8650
Epoch 5/100
…
