…
0:00, 402.50it/s]Padding data:  98%|#########7| 1991/2042 [00:04<00:00, 402.66it/s]Padding data: 100%|#########9| 2032/2042 [00:05<00:00, 402.77it/s]Padding data: 100%|##########| 2042/2042 [00:05<00:00, 398.88it/s]
Model: "model"
_________________________________________________________________
Layer (type)                 Output Shape              Param #   
=================================================================
input_1 (InputLayer)         [(None, 200, 60)]         0         
_________________________________________________________________
bl_1 (BL)                    (None, 120, 5)            24900     
_________________________________________________________________
activation_1 (Activation)    (None, 120, 5)            0         
_________________________________________________________________
dropout_1 (Dropout)          (None, 120, 5)            0         
_________________________________________________________________
bl_2 (BL)                    (None, 60, 2)             7330      
_________________________________________________________________
activation_2 (Activation)    (None, 60, 2)             0         
_________________________________________________________________
dropout_2 (Dropout)          (None, 60, 2)             0         
_________________________________________________________________
tabl (TABL)                  (None, 4)                 251       
_________________________________________________________________
activation_3 (Activation)    (None, 4)                 0         
=================================================================
Total params: 32,481
Trainable params: 32,481
Non-trainable params: 0
_________________________________________________________________
Epoch 1/100
4388/4388 - 79s - loss: 1.0107
Epoch 2/100
4388/4388 - 78s - loss: 0.8819
Epoch 3/100
4388/4388 - 75s - loss: 0.8524
Epoch 4/100
4388/4388 - 75s - loss: 0.8297
Epoch 5/100
…
