…
00:03<00:00, 615.47it/s]Padding data:  94%|█████████▍| 1920/2042 [00:03<00:00, 614.30it/s]Padding data:  97%|█████████▋| 1982/2042 [00:03<00:00, 614.33it/s]Padding data: 100%|██████████| 2042/2042 [00:03<00:00, 611.95it/s]
Model: "model"
_________________________________________________________________
Layer (type)                 Output Shape              Param #   
=================================================================
input_1 (InputLayer)         [(None, 200, 60)]         0         
_________________________________________________________________
bl_1 (BL)                    (None, 120, 5)            24900     
_________________________________________________________________
activation_1 (Activation)    (None, 120, 5)            0         
_________________________________________________________________
dropout_1 (Dropout)          (None, 120, 5)            0         
_________________________________________________________________
bl_2 (BL)                    (None, 60, 2)             7330      
_________________________________________________________________
activation_2 (Activation)    (None, 60, 2)             0         
_________________________________________________________________
dropout_2 (Dropout)          (None, 60, 2)             0         
_________________________________________________________________
tabl (TABL)                  (None, 2)                 129       
_________________________________________________________________
activation_3 (Activation)    (None, 2)                 0         
=================================================================
Total params: 32,359
Trainable params: 32,359
Non-trainable params: 0
_________________________________________________________________
Epoch 1/100
4383/4383 - 37s - loss: 0.6581
Epoch 2/100
4383/4383 - 36s - loss: 0.5983
Epoch 3/100
4383/4383 - 36s - loss: 0.5829
Epoch 4/100
4383/4383 - 36s - loss: 0.5723
Epoch 5/100
4383/4383 - 37s - loss: 0.5622
…
