…
00:15<00:00, 132.59it/s]Padding data:  99%|█████████▊| 2015/2042 [00:15<00:00, 134.65it/s]Padding data:  99%|█████████▉| 2029/2042 [00:15<00:00, 136.16it/s]Padding data: 100%|██████████| 2042/2042 [00:15<00:00, 129.47it/s]
Model: "model"
_________________________________________________________________
Layer (type)                 Output Shape              Param #   
=================================================================
input_1 (InputLayer)         [(None, 500, 125)]        0         
_________________________________________________________________
bl_1 (BL)                    (None, 120, 5)            61225     
_________________________________________________________________
activation_1 (Activation)    (None, 120, 5)            0         
_________________________________________________________________
dropout_1 (Dropout)          (None, 120, 5)            0         
_________________________________________________________________
bl_2 (BL)                    (None, 60, 2)             7330      
_________________________________________________________________
activation_2 (Activation)    (None, 60, 2)             0         
_________________________________________________________________
dropout_2 (Dropout)          (None, 60, 2)             0         
_________________________________________________________________
tabl (TABL)                  (None, 2)                 129       
_________________________________________________________________
activation_3 (Activation)    (None, 2)                 0         
=================================================================
Total params: 68,684
Trainable params: 68,684
Non-trainable params: 0
_________________________________________________________________
Epoch 1/100
4382/4382 - 495s - loss: 2.0803
Epoch 2/100
4382/4382 - 495s - loss: 0.6181
Epoch 3/100
4382/4382 - 497s - loss: 0.6256
Epoch 4/100
4382/4382 - 495s - loss: 0.6315
Epoch 5/100
4382/4382 - 498s - loss: 0.6159
…
