…
00:03<00:00, 582.88it/s]Padding data:  94%|█████████▍| 1927/2042 [00:03<00:00, 580.64it/s]Padding data:  97%|█████████▋| 1986/2042 [00:03<00:00, 582.69it/s]Padding data: 100%|██████████| 2042/2042 [00:03<00:00, 577.38it/s]
Model: "model"
_________________________________________________________________
Layer (type)                 Output Shape              Param #   
=================================================================
input_1 (InputLayer)         [(None, 100, 80)]         0         
_________________________________________________________________
bl_1 (BL)                    (None, 120, 5)            13000     
_________________________________________________________________
activation_1 (Activation)    (None, 120, 5)            0         
_________________________________________________________________
dropout_1 (Dropout)          (None, 120, 5)            0         
_________________________________________________________________
bl_2 (BL)                    (None, 60, 2)             7330      
_________________________________________________________________
activation_2 (Activation)    (None, 60, 2)             0         
_________________________________________________________________
dropout_2 (Dropout)          (None, 60, 2)             0         
_________________________________________________________________
tabl (TABL)                  (None, 2)                 129       
_________________________________________________________________
activation_3 (Activation)    (None, 2)                 0         
=================================================================
Total params: 20,459
Trainable params: 20,459
Non-trainable params: 0
_________________________________________________________________
Epoch 1/100
4383/4383 - 31s - loss: 0.6405
Epoch 2/100
4383/4383 - 30s - loss: 0.5993
Epoch 3/100
4383/4383 - 30s - loss: 0.5853
Epoch 4/100
4383/4383 - 30s - loss: 0.5799
Epoch 5/100
4383/4383 - 30s - loss: 0.5742
…
