…
0:00, 408.95it/s]Padding data:  98%|#########7| 2000/2042 [00:04<00:00, 413.04it/s]Padding data: 100%|##########| 2042/2042 [00:05<00:00, 410.57it/s]Padding data: 100%|##########| 2042/2042 [00:05<00:00, 404.34it/s]
Model: "model"
_________________________________________________________________
Layer (type)                 Output Shape              Param #   
=================================================================
input_1 (InputLayer)         [(None, 100, 60)]         0         
_________________________________________________________________
bl_1 (BL)                    (None, 120, 5)            12900     
_________________________________________________________________
activation_1 (Activation)    (None, 120, 5)            0         
_________________________________________________________________
dropout_1 (Dropout)          (None, 120, 5)            0         
_________________________________________________________________
bl_2 (BL)                    (None, 60, 2)             7330      
_________________________________________________________________
activation_2 (Activation)    (None, 60, 2)             0         
_________________________________________________________________
dropout_2 (Dropout)          (None, 60, 2)             0         
_________________________________________________________________
tabl (TABL)                  (None, 4)                 251       
_________________________________________________________________
activation_3 (Activation)    (None, 4)                 0         
=================================================================
Total params: 20,481
Trainable params: 20,481
Non-trainable params: 0
_________________________________________________________________
Epoch 1/100
4388/4388 - 48s - loss: 1.1088
Epoch 2/100
4388/4388 - 46s - loss: 0.9299
Epoch 3/100
4388/4388 - 46s - loss: 0.8946
Epoch 4/100
4388/4388 - 46s - loss: 0.8650
Epoch 5/100
…
0:00, 402.50it/s]Padding data:  98%|#########7| 1991/2042 [00:04<00:00, 402.66it/s]Padding data: 100%|#########9| 2032/2042 [00:05<00:00, 402.77it/s]Padding data: 100%|##########| 2042/2042 [00:05<00:00, 398.88it/s]
Model: "model"
_________________________________________________________________
Layer (type)                 Output Shape              Param #   
=================================================================
input_1 (InputLayer)         [(None, 200, 60)]         0         
_________________________________________________________________
bl_1 (BL)                    (None, 120, 5)            24900     
_________________________________________________________________
activation_1 (Activation)    (None, 120, 5)            0         
_________________________________________________________________
dropout_1 (Dropout)          (None, 120, 5)            0         
_________________________________________________________________
bl_2 (BL)                    (None, 60, 2)             7330      
_________________________________________________________________
activation_2 (Activation)    (None, 60, 2)             0         
_________________________________________________________________
dropout_2 (Dropout)          (None, 60, 2)             0         
_________________________________________________________________
tabl (TABL)                  (None, 4)                 251       
_________________________________________________________________
activation_3 (Activation)    (None, 4)                 0         
=================================================================
Total params: 32,481
Trainable params: 32,481
Non-trainable params: 0
_________________________________________________________________
Epoch 1/100
4388/4388 - 79s - loss: 1.0107
Epoch 2/100
4388/4388 - 78s - loss: 0.8819
Epoch 3/100
4388/4388 - 75s - loss: 0.8524
Epoch 4/100
4388/4388 - 75s - loss: 0.8297
Epoch 5/100
…
0:00, 417.59it/s]Padding data:  97%|#########6| 1971/2042 [00:04<00:00, 413.73it/s]Padding data:  99%|#########8| 2014/2042 [00:04<00:00, 415.20it/s]Padding data: 100%|##########| 2042/2042 [00:04<00:00, 413.38it/s]
Model: "model"
_________________________________________________________________
Layer (type)                 Output Shape              Param #   
=================================================================
input_1 (InputLayer)         [(None, 500, 60)]         0         
_________________________________________________________________
bl_1 (BL)                    (None, 120, 5)            60900     
_________________________________________________________________
activation_1 (Activation)    (None, 120, 5)            0         
_________________________________________________________________
dropout_1 (Dropout)          (None, 120, 5)            0         
_________________________________________________________________
bl_2 (BL)                    (None, 60, 2)             7330      
_________________________________________________________________
activation_2 (Activation)    (None, 60, 2)             0         
_________________________________________________________________
dropout_2 (Dropout)          (None, 60, 2)             0         
_________________________________________________________________
tabl (TABL)                  (None, 4)                 251       
_________________________________________________________________
activation_3 (Activation)    (None, 4)                 0         
=================================================================
Total params: 68,481
Trainable params: 68,481
Non-trainable params: 0
_________________________________________________________________
Epoch 1/100
4386/4386 - 162s - loss: 1.0436
Epoch 2/100
4386/4386 - 160s - loss: 0.8210
Epoch 3/100
4386/4386 - 160s - loss: 0.7921
Epoch 4/100
4386/4386 - 160s - loss: 0.7711
…
